checkpoint.pth (torch_old, 28337 bytes, 6 tensors)

fc1.weight f4 [64, 37]
00000000: b139 e53d bc58 c63d d2e9 42be de8d dabe
00000010: 0513 013e 4ce0 bf3d 76fb 9bbd 26c2 ec3c
00000020: cf4f aabd 1062 9fbe 58b0 15be 918f 07bb
00000030: fbfa 8bbe 1f35 5abd 160a d63c 8c71 e0bd
00000040: e4fa 36be fc06 5c3e daa7 1b3e 36ac 6abd
00000050: e262 89bc 1b22 6c3d e378 193e d6c4 23bc
00000060: c607 15be 93d7 8f3c 49b8 d33d b25b 6ebe
00000070: 37a0 0bbe 431e 9b3c bfe9 173c a833 96bd
00000080: d1ff a0bc be78 b9be 3986 c0be 17e8 95bd
00000090: 6a29 53bd a8da 293e b1c1 823e ac25 62bc
000000a0: 6c0f 91bc 0c49 17be 7427 103e 1133 853d
000000b0: 1a36 a6be c6a3 85be 25d7 84bf ed01 b03d
000000c0: a4ee 803d eb93 ac3c 2c56 2a3e 451a 073e
000000d0: c7ec 9e3d a878 1d3d c036 e13d 9e5f 073e
000000e0: e4b2 22bd 0e52 1b3d 73cd 37be 3b33 d4bd
000000f0: 8e55 133d 68de 613c b691 53bc 11b1 573d
00000100: af55 523d aacc 003d 8f5c f6bd 84bd 09bc
00000110: cc0d e03d 728a 963e 9e63 253e 9bef 163e
00000120: 79db de3c 58d8 41bc 1e66 333e 36d6 623d
00000130: 2163 2cbd c75c 053e 9ecf 9dbd c762 f5bc
00000140: 00cc 94be 0eae ce3d 8654 313e 4740 8ebe
00000150: abea 2fbc b932 7b3b 12b9 af3c 2bc9 8abd
00000160: 0643 453d 5e62 1cbe 874b cfbc 1650 323e
00000170: 0d58 853c 37e1 a33d 379b 1b3e 288c c0bd
00000180: 033e c5bd daf1 74be e6ee 09bf 199a 2abc
00000190: ff0c ff3b 8fd4 5c3e c249 37bc 51e0 06be
000001a0: 6b7a 6abe 6c07 40be fbb1 8d3d 02b9 80bd
000001b0: c07a e2bb 0357 fdbc b4bf 5abd 396f df3e
000001c0: 994b 9ebe 27b2 32be cbcd f5be 1e2f ecbf
000001d0: b383 eb3b b9f2 6ebb 571c 033d 44ae d43b
000001e0: 698b 313d 5da0 5fbd 69bd c03b cd62 fdbc
000001f0: 5ccc 8fbd d7e7 01bd 527e 44be 58fd acbd
00000200: ed2a f2bc 5d03 133d 79a2 913e f662 40bd
00000210: 453a b73c 7caa 89bc f289 293d ba9a ac3c
00000220: c4b4 56bd dddb 033c 394f ae3d 427d f53d
00000230: b57d fd3d 6101 573d 0b4b 923d c294 523d
00000240: 24c2 4a3d 8661 9fbd fd2e 843c 910c ea3a
00000250: ed36 66bd a734 25be 436f 19be 180c 0bbe
00000260: fffa ea3d b89b a03d cf09 133e 2a5f 55bd
00000270: 5377 d5bd d7a1 02bf 1b32 c6bc 8cca 853d
00000280: 1756 c0bd eecd 2cbe 1752 7abe bd4f 47be
00000290: 3bf8 dbbd 194d b13d 66fd 0e3d 3990 a73e
000002a0: fa1b e3bd 8400 913c 43b7 d73d 21d3 2cba
000002b0: fb52 9dbc f8b2 05bd 2797 843d c92c b63d
000002c0: b1e3 003d ec41 23be 226e e33d aaae ebbb
000002d0: e0e5 8a3c 628d 783d 14c7 4b3e 106e 6e3d
000002e0: 73be d83c d6ac ea3a 99d7 14bc 4f39 20bd
000002f0: e495 f33d 3426 9bbc 6d7a 733e c99a 12bd
00000300: 5f12 2cbc ae75 c5be b523 cabf 5a2c c0bd
00000310: c65b 81bd 40b3 543d 21d3 eebc 4c32 c33d
00000320: a4e3 953c 5dbc 5c3c 7035 56bd 5767 143d
00000330: 390a 363d c172 3b3d 0c70 8b3d 5521 d43d
00000340: faa8 273e 1757 323e a277 ee3c 64e3 afbd
00000350: b335 ea3d bc71 853d c871 143e 4092 543c
00000360: 1ad7 d4bd fbec 543b 7132 dd3d cbce 89bd
00000370: ecc3 893c 9863 ab3c b4cb 1ebd 8631 ccbd
00000380: df27 e63b f82d ac3c 0cb9 98be f162 ce3c
00000390: 51bc 86be f4a4 7dba 3c7f c4bd cacc 163e
000003a0: 87ee 7dbd c32e 3f3d 9e01 a43d addb 7b3d
000003b0: 02fe 1e3e 6a5b 873b 23aa 64be 9cb5 58bc
000003c0: 0d33 ffbc d4b9 cc3d f700 bd3c 05d1 3bbe
000003d0: ef38 a83d 4292 3abe d5da 8e3c 3d03 59be
000003e0: b489 c7bd 4cd0 b0bd b0ef 853c 1c39 ab3d
000003f0: d8b1 f7bc f9e1 fcbc 64d2 03be 421b 353e
0.111926444 0.096848935 -0.19034508 -0.4268636 0.12604912 0.09368953 -0.07616322 0.028901171
-0.083160035 -0.31129503 -0.14618051 -0.0020684937 -0.2733992 -0.053273316 0.026127856 -0.10959157
-0.17869145 0.2148704 0.15200749 -0.05729314 -0.016770784 0.057649713 0.14987521 -0.00999566
-0.14553747 0.017558848 0.10337884 -0.23277166 -0.13635336 0.018935328 0.009272038 -0.073340714
-0.019653233 -0.3622493 -0.37602404 -0.07319658 -0.051553167 0.16587317 0.255384 -0.013802927
-0.017707549 -0.14773959 0.1407755 0.06503881 -0.3246315 -0.26101512 -1.0378157 0.08594117
0.06295517 0.021066627 0.16634434 0.13193615 0.077600054 0.038445145 0.10996771 0.13220069
-0.039721385 0.03792005 -0.17949466 -0.10361334 0.035970263 0.013785936 -0.012913158 0.052659098
0.051351245 0.031445183 -0.12029373 -0.008407 0.109401315 0.294025 0.16151282 0.1473984
0.027204262 -0.0118313655 0.17519423 0.05538007 -0.042086724 0.13023673 -0.077056155 -0.029954327
-0.2906189 0.10091792 0.173174 -0.27783415 -0.010737102 0.0038329794 0.021450553 -0.06776651
0.04815962 -0.15271899 -0.025304569 0.17413363 0.016277337 0.08001941 0.15195929 -0.09401733
-0.096309684 -0.23920384 -0.53880155 -0.010412716 0.0077835317 0.2156546 -0.011187019 -0.13171507
-0.22898261 -0.18752831 0.06918713 -0.062852874 -0.0069116056 -0.03092528 -0.05340548 0.43639544
-0.3091705 -0.17450772 -0.4800857 -1.8451879 0.0071873306 -0.0036460592 0.03200945 0.0064905006
0.043345843 -0.054596294 0.0058819545 -0.030930901 -0.070214 -0.03171524 -0.19188812 -0.08446759
-0.029561484 0.03589188 0.2844427 -0.046969377 0.022366652 -0.016804926 0.04139132 0.021069873
-0.052418485 0.008048025 0.08511204 0.11986782 0.12377492 0.05249155 0.071432196 0.051411398
0.049501553 -0.07782273 0.016135687 0.0017856528 -0.056204725 -0.16133367 -0.14983849 -0.13578832
0.11473655 0.07842201 0.1435921 -0.05209271 -0.1042315 -0.510282 -0.024193814 0.065327734
-0.0939142 -0.16875431 -0.24445377 -0.19464011 -0.107407056 0.08657283 0.03490963 0.3272722
-0.110893205 0.017700441 0.10533001 -0.000659274 -0.019204607 -0.03264138 0.064741425 0.08895261
0.031467143 -0.15943116 0.111049905 -0.0071924524 0.016955316 0.06068171 0.19900161 0.058210433
0.026458 0.0017904292 -0.009084606 -0.039117154 0.11893824 -0.018939115 0.2377717 -0.035792146
-0.010502427 -0.38566345 -1.5792147 -0.093834594 -0.063163325 0.05192876 -0.029153408 0.09531078
0.018297024 0.013472644 -0.052297056 0.036231365 0.044443343 0.045763735 0.068084806 0.1035792
0.16373053 0.17416035 0.02910978 -0.08588293 0.114360236 0.06515834 0.14496529 0.012974322
-0.1039259 0.0032489884 0.108006366 -0.06728896 0.016817056 0.020921513 -0.038768485 -0.09970383
0.007023796 0.021018013 -0.2982868 0.025193663 -0.2631555 -0.0009675764 -0.095945805 0.14726558
-0.061995056 0.046675455 0.08008121 0.061488796 0.15526584 0.0041307705 -0.22330527 -0.013226893
-0.031152273 0.099963814 0.02307175 -0.18341453 0.08213984 -0.18219855 0.017438332 -0.21192642
-0.09743062 -0.086334795 0.016349643 0.08360502 -0.03023617 -0.03086947 -0.12873226 0.1768618

fc1.bias f4 [64]
00000000: 12aa a83d 93ca 103d 5cab 05be ef13 93bd
00000010: 35b2 1b3e a541 32bc 8702 07be 288f ad3d
00000020: fc78 463d c138 5fbe 46f5 073e bd7e 703e
00000030: 4183 163e bbab 4d3e bcef 3dbd b140 31be
00000040: f7a7 2fbc 6f12 91bd 5130 313b 307b 5fbe
00000050: 37b6 07be bacf 6dbc f862 7bbc 69a2 9ebd
00000060: ed38 16be 202c 523d 04ea 65bc 2e5a 42be
00000070: 0fb7 043e f170 193e a161 f8bd 121b 1bbe
00000080: 5f30 1d3e 2841 1dbc d7c5 2fbe 80b6 843d
00000090: 91f2 d4bc 9f47 983c e447 bcbc 3c4d abbd
000000a0: 6d98 8abd a5a4 41bd 2d0e 21be b7a0 833e
000000b0: dbfd fa3a 09de cebd f7ae 57bd b238 18be
000000c0: 37ce 06be cb34 333d 07a7 5dbe 2704 fe3d
000000d0: 234b cabd 95db 17be 3b88 3cbe 58e8 5d3d
000000e0: c742 2c3d 9239 833c e84f 833b 9029 d7bd
000000f0: 6750 63bc 358f 993c a10a 173e a00b c4bc
0.08235563 0.03534944 -0.1305365 -0.071815364 0.152047 -0.010879909 -0.13184558 0.084745705
0.048455223 -0.21798994 0.13277158 0.23485847 0.14698507 0.20085041 -0.046371207 -0.17309834
-0.010721198 -0.07083594 0.0027036855 -0.21824336 -0.13253103 -0.014514858 -0.01534342 -0.07745821
-0.14670153 0.051311612 -0.014032844 -0.18979713 0.12960456 0.1498449 -0.12127996 -0.15147045
0.15350483 -0.009598054 -0.17165314 0.064801216 -0.02599457 0.01858884 -0.022983499 -0.08364341
-0.06767354 -0.047276158 -0.15728064 0.25708553 0.0019149141 -0.101009436 -0.052657094 -0.14865378
-0.13164602 0.04375152 -0.21645747 0.12403136 -0.098776124 -0.14829858 -0.18411343 0.05417666
0.04205587 0.016018663 0.0040073283 -0.10505974 -0.01387415 0.018745044 0.14750148 -0.023931324

fc2.weight f4 [64, 64]
00000000: dec3 a33b 4c70 5a3d 125a 043e ae96 243f
00000010: f160 0abc 2675 5bbe 7bca 953d 0d56 cf3c
00000020: 62af 2b3e cd7c 343d 9e9f a33d d1ba b6bd
00000030: 83aa 7d3e 31b3 e43d 60e3 1fbe 8cef f03d
00000040: 9433 38be 180f b1bd 7f82 e23d c8f7 5abd
00000050: 61bc 403e c07a 5e3d 5de5 913d bb56 2ebe
00000060: 9be3 e6be 9624 dbbd b379 343d d215 c9bd
00000070: e28c 29bc 41fb 41bd 9180 16be c083 40be
00000080: 8e37 ae3d a9cd 313d c1ae 733d 0ca0 dd3d
00000090: dd61 c7bd ad93 563c 0d04 4cbe 403e 27bb
000000a0: de7d 1bbe 3f70 0bbe 1d16 4f3e b8d6 5dbd
000000b0: e769 3ebd 21fb 983d 9864 9abd e15d 3bbe
000000c0: 6753 94bd 559c 273c 4da9 91bd 30a8 e4be
000000d0: 79cd 02be 9c53 453e 310e 923e 9804 adbd
000000e0: cd76 343e 0cd6 8bbc e9b9 2fbe 61d8 86be
000000f0: ae4a e2bc cc9b fc3e 1352 5ebd 28dc 913d
00000100: 86cf 33bd 6e9d 2b3e 8d10 883d a19a 67be
00000110: f149 8d3d 90b5 693e 4b84 7abd 0eb0 6a3d
00000120: 48a0 98bd 007b 6cbe 63ec 0abd 30ed 7e3e
00000130: ee10 21be 032c bd3d f095 73be 942a 5fbe
00000140: 328f 6a3d d864 1c3e 92d6 66be f360 fb3d
00000150: 2f9a 7c3d 240b e4bc 805a 15bb a6ad d0be
00000160: 5460 5e3d dacb 6a3d 2dc6 a3bc 7c83 9c3c
00000170: 908d 2d3e 68da 52bd 6b84 083e b98b f2be
00000180: 506f 7fbe 4d89 d73c 15fc bf3d a402 1f3d
00000190: e143 99bd 4b08 a6bd 082b 3d3e 753e 3dbe
000001a0: 8439 c53d 3b9c 773d 0ba5 22bd 73cc 04be
000001b0: 4f26 df3c d401 10be 3386 4ebc d122 ad3c
000001c0: c3d1 55bd 4a87 4cbe 041c babd 7dca c83e
000001d0: 84e7 a4bd 9260 2fbe 088e 83bd 470f b0bd
000001e0: a2b9 a5bd 6c62 6cbd a0aa ae3e b37a 853d
000001f0: 9b49 b6bd 43c8 4dbe 2cad 7cbe 13e0 10be
00000200: 7cf8 3dbd ad1e 3fbd 6eb3 dc3c 8ada 6a3e
00000210: 094e d3bc d221 873d 81ca aabd 8c66 903d
00000220: c0cb 963e ac27 cd3c de02 56bd c110 033e
00000230: 7e80 5d3e 70ac ce3d e676 b5be 9674 1abd
00000240: 9296 e0bd 7d12 b23d 0b03 3e3e 2e67 0e3d
00000250: e604 84bd cc9f 273d f665 8ebd e598 023e
00000260: 3f93 c93c 7505 523d 0f7b 023e e821 4d3e
00000270: f7ac aebd 9c99 0e3e a368 81bb 5a93 8fbc
00000280: 788e 853e 4a74 f7bd e523 43bd 2604 b43e
00000290: 4c13 8bbd 4f3d 773e cdfa 83be 005d 003d
000002a0: 1fca 053d 01f1 a43e 8148 40ba 0c14 9dbd
000002b0: e366 14be 9ee2 503d a0e5 8cbd 5c9c bbbd
000002c0: c8d4 39be f9ff 83bd cb73 cfbd 3d1a 1e3e
000002d0: 8df6 0dbe 6a43 1fbe 1eba 29be 2a47 b23e
000002e0: 2851 b93d 9097 96bd 81ed 8f3e a18c 553d
000002f0: 4e26 22be 5803 973e 5e63 85bd 45ce 463d
00000300: 546c 73be 30b1 cebd 3bfc 0a3e fd3a 1a3f
00000310: 1717 96ba 6499 763d ae24 f9bd 968b 4d3c
00000320: d01d 953d 2624 873d e1af c33d b96d 463e
00000330: 697d 0c3e 4320 8abb a4af 14bf 34a0 433c
00000340: 8039 0dbe 3c08 1b3b d7c3 793d fe30 24bd
00000350: 9f19 0a3c a2ef 5cbe b8b8 0a3e 958b c13e
00000360: 73dd 0a3e c32a 293e f4bd 3b3d 8424 d63d
00000370: 4860 7b3e f7e8 883c 3daa 32bd 9bc1 5cbd
00000380: 706c a83d 9306 233e 464f 053d 057f 723e
00000390: 36c4 66be c3c9 103e 5e18 b93e 43da 0abe
000003a0: 68e6 7a3e d770 a23e 5427 a7be 42ab a3bc
000003b0: 4e0f a1bc 3e6b 6b3e 6a06 30be 766b 48bd
000003c0: 04dd 31bd cea0 433e b4c7 12bd 3eeb b73d
000003d0: 2b56 f43d a4a3 dfbd f851 85bc 2507 ed3d
000003e0: 8e3d 9dbe 5f58 80bc 4669 dc3d 523a d23c
000003f0: 8ced f4bd 1d58 993e 0d53 1cbe 6ada f5bd
0.0049977144 0.05332975 0.12924984 0.6429242 -0.008445964 -0.21431407 0.07314011 0.025309587
0.16766122 0.04406433 0.07989429 -0.08922351 0.24772076 0.111669905 -0.1561408 0.1176444
-0.17988425 -0.08645457 0.110600464 -0.05345896 0.18821861 0.054316282 0.07123826 -0.17025273
-0.45095524 -0.107003376 0.044061374 -0.09818615 -0.0103485305 -0.047358755 -0.14697482 -0.18800259
0.0850669 0.043409023 0.05949283 0.10821542 -0.09735463 0.013096732 -0.1992342 -0.0025519282
-0.15184733 -0.13617037 0.2022328 -0.05415985 -0.046487715 0.07469774 -0.07538718 -0.1829753
-0.0724247 0.010230144 -0.0711237 -0.44659567 -0.12773694 0.19270176 0.28526452 -0.08448142
0.17623444 -0.017069839 -0.17160763 -0.2633696 -0.0276235 0.49337614 -0.05427749 0.071220696
-0.04389908 0.16759273 0.06643782 -0.2261758 0.06898869 0.22823167 -0.06116132 0.057296805
-0.07452446 -0.23093796 -0.033916842 0.24895167 -0.15729114 0.0923691 -0.23787665 -0.21793586
0.057265468 0.15272844 -0.2254279 0.12274351 0.06167048 -0.027837344 -0.0022789538 -0.40757483
0.054291084 0.057323314 -0.019991959 0.019105665 0.16948533 -0.05147782 0.13331763 -0.47372225
-0.24944806 0.026310587 0.09374253 0.038820878 -0.0748365 -0.081070505 0.18473446 -0.18480857
0.09630111 0.060451727 -0.03970818 -0.12968616 0.027239947 -0.14063197 -0.012605238 0.021134766
-0.052201997 -0.19973484 -0.09087375 0.39216986 -0.080519706 -0.17126682 -0.06423575 -0.08596664
-0.08092047 -0.05771105 0.34114552 0.06517544 -0.08900758 -0.20095925 -0.24675435 -0.14147978
-0.04637955 -0.046660114 0.026941027 0.22934929 -0.025794046 0.065982476 -0.08339406 0.07050809
0.29452324 0.025043331 -0.052248828 0.1279936 0.21631047 0.100914836 -0.35442275 -0.03770884
-0.10966219 0.086949326 0.18555848 0.03476637 -0.06446247 0.04092388 -0.06953041 0.12753637
0.024606345 0.051274735 0.12742256 0.20032465 -0.08529084 0.13925785 -0.0039492412 -0.017526317
0.26085258 -0.12082727 -0.047641654 0.35159415 -0.0679079 0.24144481 -0.25777283 0.03133869
0.03266346 0.3221512 -0.00073350227 -0.07669839 -0.14492373 0.05099737 -0.06879735 -0.091606826
-0.18147576 -0.06445307 -0.10129508 0.15439697 -0.13863583 -0.1555306 -0.16574904 0.3481992
0.090486825 -0.07353127 0.2811089 0.052136067 -0.15834925 0.2949474 -0.065130934 0.048536558
-0.23771793 -0.100923896 0.13572781 0.6024626 -0.0011450973 0.06020488 -0.12165199 0.012545487
0.07281077 0.06598692 0.095550306 0.19377793 0.13719715 -0.0042152717 -0.58080506 0.011940051
-0.13791466 0.002365603 0.060977783 -0.040085785 0.00842896 -0.21575788 0.13547027 0.37801805
0.13561039 0.16520219 0.04583545 0.104561836 0.24548447 0.016712649 -0.043619383 -0.053895574
0.08223808 0.15920477 0.032546304 0.23681267 -0.22535786 0.14139466 0.36151403 -0.13559823
0.24501956 0.31726715 -0.32647192 -0.019979123 -0.019660618 0.22990128 -0.17189947 -0.048930608
-0.043423668 0.19104311 -0.035834983 0.08980416 0.11930498 -0.10919884 -0.016274437 0.11573628
-0.30711025 -0.015667139 0.10762267 0.025662575 -0.11959371 0.29950038 -0.15266056 -0.1200455

fc2.bias f4 [64]
00000000: 85e9 e2bb 173c 5d3d ac9d f93d b83c 9bbd
00000010: 03d3 e53d 1e36 40be 2329 09be 26e7 d23c
00000020: 1007 4c3e 0eb5 d33e 68d0 dcbd 6d3b 543e
00000030: 0c7a 8a3e 6f0b 34be d2ee 343c 6686 543c
00000040: cb62 10bd 5b8a 22be a355 79bd 439a 003e
00000050: a59e a23e 68d3 f83e 53af 5cbe cb53 0bbd
00000060: 3218 bd3d cef5 2ebe 108e 093e aaf7 3fbd
00000070: c860 f7bd 01b2 ef3d a688 9dbd 6ccd 15be
00000080: 9380 9b3c 04fc 753e f60f b03d 2bbf 0dbd
00000090: 073a d4bd 320b c6bd 7554 e03e 4f7a 0abe
000000a0: ac17 3f3c 1025 f43e 7224 593e e771 153d
000000b0: 7f28 973d 8344 b3bd 6f0d 8c3e a6ea c4bd
000000c0: 67a9 68bd 9300 17bd 5bc7 5cbd ae22 cf3e
000000d0: 7f8e 25bd 95ee aebd ee0c 8a3e a541 2dbe
000000e0: c0fc e4bd 4e0a 0cbe df3d d5bc ee42 283d
000000f0: 7137 eabc 20ba 813e f7c7 903d 59f6 e9bd
-0.0069248104 0.054012384 0.12188277 -0.075799406 0.11221888 -0.18770644 -0.13394599 0.025744986
0.19924569 0.4134907 -0.10781938 0.20725794 0.2704624 -0.17582487 0.011043267 0.012971496
-0.035250466 -0.15873091 -0.060872685 0.12558846 0.3176166 0.4859879 -0.21551256 -0.034015458
0.092331305 -0.17085955 0.13433099 -0.04686705 -0.120790064 0.117038734 -0.07692079 -0.14629143
0.018982207 0.24021918 0.08596794 -0.03460614 -0.1036263 -0.09670104 0.43814436 -0.1352322
0.011663359 0.47684526 0.21205309 0.03648558 0.07380771 -0.08753302 0.27354 -0.09615068
-0.05680218 -0.036865782 -0.053901058 0.40456146 -0.040419098 -0.085416 0.2696299 -0.16919573
-0.11181021 -0.13675806 -0.026030479 0.041079454 -0.02859089 0.25337315 0.0706939 -0.1142394

fc3.weight f4 [4, 64]
00000000: 08e2 3c3e b8c0 943e 272b 1d3e f699 05be
00000010: e30c de3e d025 bcbe 9193 de3d 299b 8b3e
00000020: 433d 133e a6ce fb3d e722 f9bd c2e8 433e
00000030: 27d3 613e ec84 00be 570e ce3e 93a8 463e
00000040: 4a56 1cbd 4787 35be 5353 063e a61f 5f3e
00000050: 4f4c ff3d b50e 363e c43a 90bc 9ab7 1ebe
00000060: 28e0 3a3c 7294 21bd 788a 803d f429 23bf
00000070: 74b0 cbbc 8134 5d3e 23d2 8cbe 52e3 b3bd
00000080: f4c6 2a3e d3ff 833e 1c9b 313e a24d 983d
00000090: ea72 1d3d befe fabe f5c5 513e 006e 74be
000000a0: 1b7d 2e3e da97 153e e772 2a3e 3f52 3f3e
000000b0: b86b 883e d77c aabe fb5d 703e 4a35 8ebd
000000c0: 92c3 75be f07b 923e 0b38 13bc 26a4 663e
000000d0: d8dc 8b3e 2474 50bd 50a7 cf3d cf6d 41be
000000e0: 9fb4 b5be abeb 7fbd 6d48 52be abcb 6e3e
000000f0: 5d53 61be f83f 3b3e ba7e e73d 7089 dd3c
00000100: d055 933e 9f10 713e 9238 193e 97c6 bfbe
00000110: 6b5c 873e 28f0 47be bd53 c8be e432 ca3e
00000120: b320 213e 6179 2b3e debf 0a3e 338f 023e
00000130: 1f80 fa3d 7edd 12bd 7af5 d33e 5271 da3e
00000140: 0058 afbd 4c68 76bd 2b61 2d3e 0aa1 403e
00000150: e04f 3f3e ae17 563e 0a51 2a3c 58e0 113b
00000160: c2da b23d 873f 503d 98b7 203e 2486 74bc
00000170: 9a7f e5bd 7160 873e 8bc7 02be 6487 8d3d
00000180: 995c 923e 74f8 2f3e ae79 9c3e 7536 39be
00000190: cbe5 8b3c dbc3 84be d39f 303e 8ca7 e1bd
000001a0: 345d 6c3e 76d3 223e b1c0 1d3e fc01 743e
000001b0: 4548 173e 26be 4ebe 2f8e 0b3e fdac 35be
000001c0: 7547 ddbd 94ac 753d e469 053d 45b7 e53d
000001d0: c293 aa3e eabc 7e3d 84f7 0c3e 7851 debd
000001e0: 4a37 3abd 4eac 65be 187f 83bd 7087 123e
000001f0: c0e6 6bbe 066e 303c 58af 923d 771d 0f3e
00000200: b9ef 113e 4423 193e 6af7 353e 2c74 ebbd
00000210: ea74 e53e 6aae 65bd 35d1 943e ac06 463e
00000220: 7407 9c3d 9220 083e 8e93 133d c630 db3e
00000230: 3a2b 8e3e 6ecf 62be 4dd3 b83d 8498 183f
00000240: 545b 1f3c 94cd 10be 872b 6dbd 2f11 93bc
00000250: e517 853d 3f6e 8c3e 5ceb a0be 0795 f13d
00000260: 1bac 903e bfe0 6fbd 53d4 16bd 26ad b5bd
00000270: b42e b73e 1485 b43e f21a 37ba 45c1 97be
00000280: 14ef 2f3e 8048 2b3e 870e 663e d531 513e
00000290: 0558 5abe e42a d0be 8543 313e 5b01 5fbd
000002a0: aeee b23e 9bf5 293e eaaf d63d 3839 3d3e
000002b0: 1185 aa3e be93 68be 1841 163e 5551 7abe
000002c0: af14 f13c 73a9 943e 1dec b4be e555 6b3e
000002d0: 7dfd 15bd a67a 2a3e 6250 8c3d 2adf cf3d
000002e0: 0b30 afbe 864b 88be 6154 d83e ef92 9cbc
000002f0: cbab 86be 18b2 253e 227f 0abf 9cc0 8fbe
00000300: 5f2f cc3e 606b 883e 93ac 0d3e 2553 38be
00000310: d5a7 cf3e 084e 08be 5520 edbe a36c 313f
00000320: 617f 113e 0d43 5a3e c2a8 59bc 724c 913e
00000330: 9d69 283e ed47 763c 0a5c dc3e 998b 3abc
00000340: bedc e33d fd83 a1be 8baf ff3e 47bd 023e
00000350: 518b a73d 3252 563e 72f1 dfbd b05d 8f3e
00000360: 2a93 9a3d d3fa 32be 3bf4 cf3e 0f59 b8be
00000370: a778 003e 292a a23d 141a a7bd 1c41 b8be
00000380: 2bfc 863e f060 703e f48b ae3c b510 4bbe
00000390: 77df 22be e45f d6bd ef09 353e 7a5f db3d
000003a0: 1685 b53c 2d84 643e 9e0b a93e 1809 1a3c
000003b0: f40e d43e 4960 66bd 4ec6 bf3d 67a2 f6bd
000003c0: 8ffd b2bd d1f7 363e 1d38 b63e 3cd0 213e
000003d0: 991a 033f 4f67 78bd 4259 fc3d 9a51 213e
000003e0: 60db 97bd 8610 b5bd e130 e0be b455 c4bb
000003f0: b523 55be 378d ca3d 7517 29be f078 463e
0.18445599 0.29053283 0.15348493 -0.13047013 0.43369207 -0.367476 0.1086799 0.27266815
0.14378838 0.122952744 -0.1216486 0.19131759 0.22053204 -0.12550706 0.40245315 0.19400243
-0.03816823 -0.17727385 0.13117723 0.21789417 0.124657266 0.17779048 -0.017606147 -0.15499726
0.011405982 -0.03944821 0.06276411 -0.6373589 -0.024864413 0.2160206 -0.27504072 -0.08783592
0.16677457 0.25781116 0.17344326 0.07436682 0.03843967 -0.49022478 0.20485671 -0.23870087
0.17039911 0.14608708 0.16645394 0.18683718 0.26644683 -0.3329837 0.2347335 -0.06943758
-0.24000385 0.28610182 -0.00898553 0.22523555 0.27316928 -0.05089201 0.10139334 -0.18889545
-0.35489365 -0.06248061 -0.2053544 0.2331988 -0.22004457 0.18286121 0.11303468 0.027043074
0.28776407 0.23541497 0.14962986 -0.374562 0.26437697 -0.19525206 -0.39126387 0.3949195
0.1573513 0.16745521 0.13549754 0.12749939 0.122314684 -0.035855763 0.4139822 0.42664582
-0.085617065 -0.06015806 0.16931598 0.18811432 0.18682814 0.2090747 0.010395298 0.0022258963
0.08733131 0.050841834 0.15695035 -0.01492456 -0.11205979 0.26440766 -0.12771432 0.06910589
0.2858627 0.17184621 0.30561584 -0.1808718 0.017077347 -0.25930676 0.17248468 -0.11018285
0.23082429 0.15900978 0.15405537 0.23828882 0.14773662 -0.20189723 0.13628457 -0.17741771
-0.10804645 0.059979036 0.03257169 0.112165965 0.33315855 0.06219188 0.13766295 -0.10855383
-0.045462884 -0.2242901 -0.064207256 0.14309478 -0.23037243 0.010768419 0.071623504 0.13976084
0.14251603 0.14954859 0.17770162 -0.114967674 0.4481576 -0.056074537 0.29065862 0.19338483
0.07618609 0.13293675 0.03602939 0.4281065 0.27767354 -0.2214944 0.090246774 0.5960772
0.009726364 -0.14140922 -0.05790284 -0.01795253 0.06498698 0.2742786 -0.31429565 0.11796003
0.28256306 -0.058563944 -0.036823582 -0.08870916 0.3577782 0.3525778 -0.0006984911 -0.2963964
0.17181045 0.16726875 0.22466479 0.20429166 -0.2132264 -0.40657723 0.17310913 -0.054444652
0.34947723 0.16597597 0.10482772 0.18478858 0.33304647 -0.22712609 0.14673269 -0.24445088
0.029428808 0.2903553 -0.3533639 0.22981985 -0.0366187 0.16648349 0.06851269 0.10149987
-0.3421634 -0.2662012 0.42251876 -0.019113032 -0.26302943 0.16181219 -0.5410024 -0.28076637
0.3987989 0.2664442 0.13835363 -0.18000467 0.40557733 -0.13311017 -0.4631373 0.6930639
0.14208747 0.2131464 -0.013284864 0.28378636 0.16446538 0.015031797 0.4303897 -0.011385822
0.111260876 -0.31546012 0.49938616 0.12767516 0.08180869 0.20929793 -0.10934724 0.28001165
0.075476006 -0.17478494 0.4061602 -0.36005446 0.12546025 0.07918198 -0.08159271 -0.35987175
0.26364264 0.23474479 0.02130697 -0.19830592 -0.15905558 -0.104675084 0.1767957 0.1071157
0.022158187 0.22316046 0.33016676 0.009401582 0.41417658 -0.05624417 0.093639955 -0.120426945
-0.08739769 0.17867972 0.35589686 0.15802091 0.5121246 -0.060645398 0.12321712 0.15753785
-0.07414889 -0.08841042 -0.43787292 -0.005991662 -0.20814402 0.09890216 -0.16512854 0.19382071

fc3.bias f4 [4]
00000000: fce8 8d3e e2a8 963e 9b46 153e a150 343e
0.27716815 0.29425722 0.14577715 0.17608882
